…
small.csv --val-metafile /mountb/single_cell_flist/val_ch3_small.csv --save-dir /mountb/autoencoder/ch3 --model-type AE46 --dataset-type 46 --latent-dims 2048
Namespace(batch_size=128, datadir='.', dataset_type='46', debug_mode=False, latent_dims=2048, learning_rate=0.001, max_epochs=2000, max_value=14054, model_type='AE46', num_workers=8, optimizer='adam', save_dir='/mountb/autoencoder/ch3', save_freq=50, seed=42, train_metafile='/mountb/single_cell_flist/train_ch3_small.csv', val_metafile='/mountb/single_cell_flist/val_ch3_small.csv', weight_decay=1e-05)
AE46(
  (encoder): Sequential(
    (0): Conv2d(1, 46, kernel_size=(2, 2), stride=(2, 2), padding=(1, 1), bias=False)
    (1): LeakyReLU(negative_slope=0.2, inplace=True)
    (2): Conv2d(46, 92, kernel_size=(4, 4), stride=(2, 2), padding=(1, 1), bias=False)
    (3): BatchNorm2d(92, eps=1e-05, momentum=0.1, affine=True, track_running_stats=True)
    (4): LeakyReLU(negative_slope=0.2, inplace=True)
    (5): Conv2d(92, 184, kernel_size=(4, 4), stride=(2, 2), padding=(1, 1), bias=False)
    (6): BatchNorm2d(184, eps=1e-05, momentum=0.1, affine=True, track_running_stats=True)
    (7): LeakyReLU(negative_slope=0.2, inplace=True)
    (8): Conv2d(184, 368, kernel_size=(4, 4), stride=(2, 2), padding=(1, 1), bias=False)
    (9): BatchNorm2d(368, eps=1e-05, momentum=0.1, affine=True, track_running_stats=True)
    (10): LeakyReLU(negative_slope=0.2, inplace=True)
    (11): Conv2d(368, 368, kernel_size=(4, 4), stride=(1, 1), padding=(1, 1), bias=False)
    (12): BatchNorm2d(368, eps=1e-05, momentum=0.1, affine=True, track_running_stats=True)
    (13): LeakyReLU(negative_slope=0.2, inplace=True)
  )
  (fc1): Linear(in_features=1472, out_features=2048, bias=True)
  (decoder): Sequential(
    (0): ConvTranspose2d(368, 368, kernel_size=(4, 4), stride=(1, 1), padding=(1, 1), bias=False)
    (1): BatchNorm2d(368, eps=1e-05, momentum=0.1, affine=True, track_running_stats=True)
    (2): LeakyReLU(negative_slope=0.2, inplace=True)
    (3): ConvTranspose2d(368, 184, kernel_size=(4, 4), stride=(2, 2), padding=(1, 1), bias=False)
    (4): BatchNorm2d(184, eps=1e-05, momentum=0.1, affine=True, track_running_stats=True)
    (5): LeakyReLU(negative_slope=0.2, inplace=True)
    (6): ConvTranspose2d(184, 92, kernel_size=(4, 4), stride=(2, 2), padding=(1, 1), bias=False)
    (7): BatchNorm2d(92, eps=1e-05, momentum=0.1, affine=True, track_running_stats=True)
    (8): LeakyReLU(negative_slope=0.2, inplace=True)
    (9): ConvTranspose2d(92, 46, kernel_size=(4, 4), stride=(2, 2), padding=(1, 1), bias=False)
    (10): BatchNorm2d(46, eps=1e-05, momentum=0.1, affine=True, track_running_stats=True)
    (11): LeakyReLU(negative_slope=0.2, inplace=True)
    (12): ConvTranspose2d(46, 1, kernel_size=(2, 2), stride=(2, 2), padding=(1, 1), bias=False)
    (13): Sigmoid()
  )
  (d1): Linear(in_features=2048, out_features=1472, bias=True)
  (mseloss): MSELoss()
)
Epoch 0:
Training summary: {'train_recon_loss': 0.0071696993035540845, 'train_loss': 0.0071696993035540845}
Evaluation summary: {'test_recon_loss': 0.0015156755873811428, 'test_loss': 0.0015156755873811428}
Best loss: 0.0015156755873811428
Epoch 1:
Training summary: {'train_recon_loss': 0.0009247364615980375, 'train_loss': 0.0009247364615980375}
…
